…
[INFO: feature_extractor.py:   44]: Checkpoint loaded from: ./checkpoint_unsupervised_jigsaw_color_vgg_a_training3/model_epoch_0024.pyth
[INFO: __init__.py:   74]: SGD (
Parameter Group 0
    dampening: 0
    lr: 0.01
    momentum: 0.9
    nesterov: True
    weight_decay: 0.0005

Parameter Group 1
    dampening: 0
    lr: 0.01
    momentum: 0.9
    nesterov: True
    weight_decay: 0.0
)
[INFO: __init__.py:   75]: Traininable params: 20
[INFO: __init__.py:   78]: Regularized Parameters: 10. Unregularized Parameters 10
[INFO: generic_trainer.py:   55]: BaseImageSSLModel(
  (trunk): FeatureExtractorModel(
    (base_model): VGG_A(
      (_feature_blocks): ModuleList(
        (0): Sequential(
          (0): Conv2d(3, 64, kernel_size=(3, 3), stride=(1, 1), padding=(1, 1))
          (1): BatchNorm2d(64, eps=1e-05, momentum=0.1, affine=True, track_running_stats=True)
          (2): ReLU(inplace=True)
        )
        (1): MaxPool2d(kernel_size=2, stride=2, padding=0, dilation=1, ceil_mode=False)
        (2): Sequential(
          (0): Conv2d(64, 128, kernel_size=(3, 3), stride=(1, 1), padding=(1, 1))
          (1): BatchNorm2d(128, eps=1e-05, momentum=0.1, affine=True, track_running_stats=True)
          (2): ReLU(inplace=True)
        )
        (3): MaxPool2d(kernel_size=2, stride=2, padding=0, dilation=1, ceil_mode=False)
        (4): Sequential(
          (0): Conv2d(128, 256, kernel_size=(3, 3), stride=(1, 1), padding=(1, 1))
          (1): BatchNorm2d(256, eps=1e-05, momentum=0.1, affine=True, track_running_stats=True)
          (2): ReLU(inplace=True)
        )
        (5): Sequential(
          (0): Conv2d(256, 256, kernel_size=(3, 3), stride=(1, 1), padding=(1, 1))
          (1): BatchNorm2d(256, eps=1e-05, momentum=0.1, affine=True, track_running_stats=True)
          (2): ReLU(inplace=True)
        )
        (6): MaxPool2d(kernel_size=2, stride=2, padding=0, dilation=1, ceil_mode=False)
        (7): Sequential(
          (0): Conv2d(256, 512, kernel_size=(3, 3), stride=(1, 1), padding=(1, 1))
          (1): BatchNorm2d(512, eps=1e-05, momentum=0.1, affine=True, track_running_stats=True)
          (2): ReLU(inplace=True)
        )
        (8): Sequential(
          (0): Conv2d(512, 512, kernel_size=(3, 3), stride=(1, 1), padding=(1, 1))
          (1): BatchNorm2d(512, eps=1e-05, momentum=0.1, affine=True, track_running_stats=True)
          (2): ReLU(inplace=True)
        )
        (9): MaxPool2d(kernel_size=2, stride=2, padding=0, dilation=1, ceil_mode=False)
        (10): Sequential(
          (0): Conv2d(512, 512, kernel_size=(3, 3), stride=(1, 1), padding=(1, 1))
          (1): BatchNorm2d(512, eps=1e-05, momentum=0.1, affine=True, track_running_stats=True)
          (2): ReLU(inplace=True)
        )
        (11): Sequential(
          (0): Conv2d(512, 512, kernel_size=(3, 3), stride=(1, 1), padding=(1, 1))
          (1): BatchNorm2d(512, eps=1e-05, momentum=0.1, affine=True, track_running_stats=True)
          (2): ReLU(inplace=True)
        )
        (12): MaxPool2d(kernel_size=2, stride=2, padding=0, dilation=1, ceil_mode=False)
      )
    )
    (feature_pool_ops): ModuleList(
      (0): AvgPool2d(kernel_size=[5, 5], stride=1, padding=0)
      (1): AvgPool2d(kernel_size=[8, 8], stride=1, padding=0)
      (2): AvgPool2d(kernel_size=[7, 7], stride=1, padding=0)
      (3): AvgPool2d(kernel_size=[4, 4], stride=1, padding=0)
      (4): AvgPool2d(kernel_size=[3, 3], stride=1, padding=0)
    )
  )
  (clf_heads): ModuleList(
    (0): Eval_MLP(
      (channel_bn): BatchNorm2d(64, eps=1e-05, momentum=0.1, affine=True, track_running_stats=True)
      (clf): MLP(
        (clf): Sequential(
          (0): Linear(in_features=123904, out_features=10, bias=True)
        )
      )
    )
    (1): Eval_MLP(
      (channel_bn): BatchNorm2d(128, eps=1e-05, momentum=0.1, affine=True, track_running_stats=True)
      (clf): MLP(
        (clf): Sequential(
          (0): Linear(in_features=36992, out_features=10, bias=True)
        )
      )
    )
    (2): Eval_MLP(
      (channel_bn): BatchNorm2d(256, eps=1e-05, momentum=0.1, affine=True, track_running_stats=True)
      (clf): MLP(
        (clf): Sequential(
          (0): Linear(in_features=9216, out_features=10, bias=True)
        )
      )
    )
    (3): Eval_MLP(
      (channel_bn): BatchNorm2d(512, eps=1e-05, momentum=0.1, affine=True, track_running_stats=True)
      (clf): MLP(
        (clf): Sequential(
          (0): Linear(in_features=4608, out_features=10, bias=True)
        )
      )
    )
    (4): Eval_MLP(
      (channel_bn): BatchNorm2d(512, eps=1e-05, momentum=0.1, affine=True, track_running_stats=True)
      (clf): MLP(
        (clf): Sequential(
          (0): Linear(in_features=512, out_features=10, bias=True)
        )
      )
    )
  )
)
use cuda
[INFO: generic_trainer.py:  107]: => Training model...
[INFO: generic_train_loop.py:   45]: Epoch: 1. Train Stats
[INFO: generic_train_loop.py:   47]: { 'name': 'accuracylist',
  'num_list': 5,
  'value': { 0: { 'sample_count': tensor([768.]),
                  'val': {'top_1': 0.1692708283662796}},
             1: { 'sample_count': tensor([768.]),
…
